Random seed: 42
Method: fedavg
Strategy: None
Use control variates: False
Model type: resnet
Dataset: cifar100
Data distribution: non-iid
Alpha: 0.5
Aggregation method: sparse
Number of clients: 100
Select ratio: 0.1
Local train ratio: 0.8
Number of rounds: 200
Number of local epochs: 10
Batch size: 32
Learning rate: 0.001
Results save directory: None
Results will not be saved.
[Model Architecture]
ResNet(
  (conv1): Sequential(
    (0): Conv2d(3, 7, kernel_size=(7, 7), stride=(2, 2), padding=(3, 3), bias=False)
  )
  (bn1): LayerNorm((7, 16, 16), eps=1e-05, elementwise_affine=False)
  (relu): ReLU(inplace=True)
  (maxpool): MaxPool2d(kernel_size=3, stride=2, padding=1, dilation=1, ceil_mode=False)
  (layer1): Sequential(
    (0): BasicBlock(
      (conv1): Sequential(
        (0): Conv2d(7, 7, kernel_size=(3, 3), stride=(1, 1), padding=(1, 1), bias=False)
      )
      (bn1): LayerNorm((7, 8, 8), eps=1e-05, elementwise_affine=False)
      (relu): ReLU(inplace=True)
      (conv2): Sequential(
        (0): Conv2d(7, 7, kernel_size=(3, 3), stride=(1, 1), padding=(1, 1), bias=False)
      )
      (bn2): LayerNorm((7, 8, 8), eps=1e-05, elementwise_affine=False)
    )
    (1): BasicBlock(
      (conv1): Sequential(
        (0): Conv2d(7, 7, kernel_size=(3, 3), stride=(1, 1), padding=(1, 1), bias=False)
      )
      (bn1): LayerNorm((7, 8, 8), eps=1e-05, elementwise_affine=False)
      (relu): ReLU(inplace=True)
      (conv2): Sequential(
        (0): Conv2d(7, 7, kernel_size=(3, 3), stride=(1, 1), padding=(1, 1), bias=False)
      )
      (bn2): LayerNorm((7, 8, 8), eps=1e-05, elementwise_affine=False)
    )
  )
  (layer2): Sequential(
    (0): BasicBlock(
      (conv1): Sequential(
        (0): Conv2d(7, 13, kernel_size=(3, 3), stride=(2, 2), padding=(1, 1), bias=False)
      )
      (bn1): LayerNorm((13, 4, 4), eps=1e-05, elementwise_affine=False)
      (relu): ReLU(inplace=True)
      (conv2): Sequential(
        (0): Conv2d(13, 13, kernel_size=(3, 3), stride=(1, 1), padding=(1, 1), bias=False)
      )
      (bn2): LayerNorm((13, 4, 4), eps=1e-05, elementwise_affine=False)
      (downsample): Sequential(
        (0): Conv2d(7, 13, kernel_size=(1, 1), stride=(2, 2), bias=False)
        (1): LayerNorm((13, 4, 4), eps=1e-05, elementwise_affine=False)
      )
    )
    (1): BasicBlock(
      (conv1): Sequential(
        (0): Conv2d(13, 13, kernel_size=(3, 3), stride=(1, 1), padding=(1, 1), bias=False)
      )
      (bn1): LayerNorm((13, 4, 4), eps=1e-05, elementwise_affine=False)
      (relu): ReLU(inplace=True)
      (conv2): Sequential(
        (0): Conv2d(13, 13, kernel_size=(3, 3), stride=(1, 1), padding=(1, 1), bias=False)
      )
      (bn2): LayerNorm((13, 4, 4), eps=1e-05, elementwise_affine=False)
    )
  )
  (layer3): Sequential(
    (0): BasicBlock(
      (conv1): Sequential(
        (0): Conv2d(13, 26, kernel_size=(3, 3), stride=(2, 2), padding=(1, 1), bias=False)
      )
      (bn1): LayerNorm((26, 2, 2), eps=1e-05, elementwise_affine=False)
      (relu): ReLU(inplace=True)
      (conv2): Sequential(
        (0): Conv2d(26, 26, kernel_size=(3, 3), stride=(1, 1), padding=(1, 1), bias=False)
      )
      (bn2): LayerNorm((26, 2, 2), eps=1e-05, elementwise_affine=False)
      (downsample): Sequential(
        (0): Conv2d(13, 26, kernel_size=(1, 1), stride=(2, 2), bias=False)
        (1): LayerNorm((26, 2, 2), eps=1e-05, elementwise_affine=False)
      )
    )
    (1): BasicBlock(
      (conv1): Sequential(
        (0): Conv2d(26, 26, kernel_size=(3, 3), stride=(1, 1), padding=(1, 1), bias=False)
      )
      (bn1): LayerNorm((26, 2, 2), eps=1e-05, elementwise_affine=False)
      (relu): ReLU(inplace=True)
      (conv2): Sequential(
        (0): Conv2d(26, 26, kernel_size=(3, 3), stride=(1, 1), padding=(1, 1), bias=False)
      )
      (bn2): LayerNorm((26, 2, 2), eps=1e-05, elementwise_affine=False)
    )
  )
  (layer4): Sequential(
    (0): BasicBlock(
      (conv1): Sequential(
        (0): Conv2d(26, 52, kernel_size=(3, 3), stride=(2, 2), padding=(1, 1), bias=False)
      )
      (bn1): LayerNorm((52, 1, 1), eps=1e-05, elementwise_affine=False)
      (relu): ReLU(inplace=True)
      (conv2): Sequential(
        (0): Conv2d(52, 52, kernel_size=(3, 3), stride=(1, 1), padding=(1, 1), bias=False)
      )
      (bn2): LayerNorm((52, 1, 1), eps=1e-05, elementwise_affine=False)
      (downsample): Sequential(
        (0): Conv2d(26, 52, kernel_size=(1, 1), stride=(2, 2), bias=False)
        (1): LayerNorm((52, 1, 1), eps=1e-05, elementwise_affine=False)
      )
    )
    (1): BasicBlock(
      (conv1): Sequential(
        (0): Conv2d(52, 52, kernel_size=(3, 3), stride=(1, 1), padding=(1, 1), bias=False)
      )
      (bn1): LayerNorm((52, 1, 1), eps=1e-05, elementwise_affine=False)
      (relu): ReLU(inplace=True)
      (conv2): Sequential(
        (0): Conv2d(52, 52, kernel_size=(3, 3), stride=(1, 1), padding=(1, 1), bias=False)
      )
      (bn2): LayerNorm((52, 1, 1), eps=1e-05, elementwise_affine=False)
    )
  )
  (avgpool): AdaptiveAvgPool2d(output_size=(1, 1))
  (fc): Linear(in_features=52, out_features=100, bias=True)
)
Model Capacity: 0.1
Global Model size: 0.46 MB
Round 1
Selected 10 client IDs: [77 22 24 46  4 49 88  9 47 84]
Keys aggregated: {'layer4.0.conv1.0.weight', 'layer3.1.conv1.0.weight', 'layer1.0.conv1.0.weight', 'layer3.0.downsample.0.weight', 'layer4.0.conv2.0.weight', 'fc.bias', 'layer2.1.conv2.0.weight', 'layer4.1.conv2.0.weight', 'layer3.0.conv2.0.w
…
